checkpoints/ViT-B-32/head_Cars.pt (torch, 403687 bytes, 2 tensors)

weight f4 [196, 512]
000000 45 3a 86 40 d2 e7 6e 40 85 d0 86 3f e6 34 91 3f
       4.194613 3.7328992 1.0532385 1.1344268
000010 31 5c a4 be 23 85 a4 c0 4d ea 37 40 e6 37 8a c0
       -0.32101586 -5.141252 2.8736756 -4.3193235
000020 33 85 ec bd 28 47 0a c0 f0 74 93 3f 80 69 b8 3e
       -0.11548843 -2.160593 1.1520061 0.3601799
000030 6f b2 32 40 ca 0b 0c 3f 20 cb 7e c0 c5 75 c5 bf
       2.7921407 0.5470549 -3.9811478 -1.5426565
000040 ae e0 da 40 1b 14 87 40 2f 08 2a 40 18 d0 bc bf
       6.8399267 4.2212043 2.6567495 -1.4751005
000050 34 59 f5 3f 07 84 51 3f db 43 2c c0 28 8e dc 3f
       1.9167848 0.8184208 -2.6916416 1.7230883
000060 a6 58 f1 c0 8b 85 96 40 2a 4c c1 c0 1b 68 c7 40
       -7.5420713 4.7038016 -6.0405474 6.231458
000070 8d 33 65 bf c7 bd 92 40 dc 25 ff 3e 07 b9 b3 3f
       -0.89531785 4.585666 0.49833572 1.4040841
000080 b5 59 d1 bf 06 4a 02 c0 62 b5 86 c0 1e 86 d4 3f
       -1.6355501 -2.035768 -4.2096415 1.6603429
000090 fb fe 85 bf 41 3c 35 c0 fb 9e db c0 5e bd 25 40
       -1.0468439 -2.8318026 -6.863157 2.589683
0000a0 e9 b7 c6 be f0 c9 9a 40 cb 40 68 c0 90 71 2f 40
       -0.38812187 4.8371506 -3.6289546 2.7413063
0000b0 c8 cd a2 c0 b5 7c dd bf 64 87 97 40 29 8f 71 c0
       -5.08762 -1.7303683 4.735277 -3.7743628
0000c0 43 61 a4 3d 40 a3 4d 40 43 f0 67 3e 4c 9a a0 be
       0.08026364 3.213089 0.22650246 -0.3136772
0000d0 d7 5c 61 40 c3 56 fb bf 13 ab af c0 88 e3 12 40
       3.5212915 -1.9635853 -5.489633 2.2951374
0000e0 b0 04 fe 3f 83 cf ed 3e 53 58 90 40 7f 04 8b c0
       1.984518 0.4644738 4.510782 -4.344299
0000f0 74 35 fb bf b4 15 99 bf 3e 21 ba c0 00 cd b1 be
       -1.9625688 -1.1959748 -5.816558 -0.34726715
000100 fe a8 19 40 55 ef 18 40 30 24 78 40 a6 f7 b3 be
       2.4009395 2.3896077 3.8772087 -0.35149878
000110 66 48 ee bf 21 26 4a 3f 35 c2 e8 bf 74 9e 9f bf
       -1.8615844 0.7896443 -1.8184267 -1.2470231
000120 36 1d f7 3f 7c 8f 70 40 92 c7 ab 3f 13 48 22 40
       1.930579 3.7587576 1.3420279 2.535649
000130 ca 52 dc be 17 78 ea bf c5 69 bc 40 7d ac b2 3f
       -0.43031913 -1.8317899 5.8879113 1.3958889
000140 93 6f 01 40 b7 e1 33 c0 17 b2 7b be 84 3a 3a c0
       2.022435 -2.8106515 -0.24579655 -2.9098215
000150 78 1e 0b c0 6a 5f cc bf 4e df c5 3f 3a c8 01 bf
       -2.1737347 -1.5966618 1.5458772 -0.50696146
000160 86 9a 8d bf 47 44 d7 c0 6c ea bb 3f 21 2e 25 c0
       -1.1062782 -6.7270846 1.4680915 -2.5809405
000170 98 31 24 c1 18 4b ed bf da d4 e9 bf 27 38 c8 3f
       -10.262108 -1.8538542 -1.8268082 1.5642136
000180 ef f6 21 40 e8 bf 5b c0 cd 93 fc 3f 2f c7 a0 c0
       2.5306966 -3.433588 1.9732605 -5.0243144
000190 23 05 69 c0 b8 09 52 3f 62 9a 1c 40 33 62 94 40
       -3.6409385 0.8204608 2.4469228 4.636987
0001a0 1d 3a 2c c0 5c a2 5f c0 c8 c1 92 be b4 35 bd c0
       -2.691047 -3.4942846 -0.28663468 -5.9128056
0001b0 2e ec 0c 40 97 85 9c 3e 6c 59 a9 3e b4 96 8c c0
       2.2019153 0.3057067 0.33076036 -4.3933964
0001c0 e4 53 9d 3e d5 fe 15 41 ae cd 37 c0 fa 43 95 3e
       0.30728066 9.374715 -2.8719287 0.29153425
0001d0 e6 9c c6 40 88 cd 49 bf 90 6d 81 3f c3 03 0a 40
       6.2066526 -0.7882924 1.0111561 2.1564796
0001e0 e5 09 a5 40 4b 3f e3 c0 1e 66 44 c0 88 e4 80 3e
       5.157458 -7.101476 -3.0687327 0.25174356
0001f0 cf 9e 59 c0 55 37 8c bf 31 38 32 c0 de 5a 66 3f
       -3.400318 -1.0954386 -2.7846797 0.899824
000200 70 bf 42 c0 9c c9 a2 3e 8e 26 a0 3f 83 16 d5 bf
       -3.0429344 0.3179444 1.2511766 -1.6647495
000210 84 d1 10 40 4c 6e 41 42 56 00 a7 3f 7a b8 99 c0
       2.2627878 48.35771 1.3046978 -4.803769
000220 b2 df d7 c0 d5 3a 20 c0 ff f4 39 3f 90 67 54 c0
       -6.7460566 -2.5035908 0.7263946 -3.318821
000230 3b 75 2a 40 82 83 f0 3c e2 81 5a 40 d7 72 c5 be
       2.6634052 0.029359583 3.4141774 -0.38564178
000240 5b 31 70 3f 04 2f 2d 40 ca 8a 1b 3d e1 53 e9 bf
       0.9382531 2.7059946 0.037974156 -1.8228723
000250 b4 b7 be bf ca 45 8e c0 ae 6d 38 40 27 e6 9b 40
       -1.4899812 -4.446019 2.8816943 4.871845
000260 26 44 6d bf ca b5 a7 3f e8 80 77 c0 e6 fe cd 40
       -0.9268211 1.3102353 -3.8672428 6.4373655
000270 b0 4d 13 40 12 0c 01 c1 5b 12 d2 c0 1c 9c 4a 3e
       2.3016167 -8.065447 -6.5647407 0.19786114
000280 5f 0e 52 bf 11 cc 31 c0 75 b2 0d c0 54 a1 0d c0
       -0.8205318 -2.7780802 -2.2140172 -2.2129717
000290 81 2b 8c be 23 56 bb 3e 18 ba 81 40 99 a5 2f c0
       -0.2737694 0.36589155 4.0539665 -2.7444823
0002a0 4b 3e c8 40 44 e0 a8 3f 5c 1f e9 bf b0 9f c0 3f
       6.257604 1.319344 -1.8212695 1.5048733
0002b0 f7 83 37 c0 b1 f3 de 3e 77 49 98 c0 86 12 ce 3d
       -2.8674295 0.43545297 -4.758968 0.10062127
0002c0 e8 85 3f 40 08 6e 90 3f e7 cb 1a c0 b8 b6 d1 c0
       2.992548 1.1283579 -2.4186952 -6.5535545
0002d0 00 19 02 c0 24 67 a8 3f a8 6c 6c 3f 59 7e 45 c0
       -2.0327759 1.3156476 0.92353296 -3.0858366
0002e0 d7 87 8b c0 e6 7b 23 c0 f5 0f 93 be 89 0a 8d 3e
       -4.360332 -2.5544372 -0.28723112 0.275471
0002f0 b1 85 91 bf 1f 79 f5 3f c6 b0 cb bf 62 b6 00 c0
       -1.1368924 1.9177588 -1.5913322 -2.0111318
000300 42 5d c7 3f 2d b2 3e c0 02 44 b1 c0 4c e2 0a c0
       1.5575335 -2.979625 -5.5395517 -2.170062
000310 d2 51 0b c0 cc d6 f0 3f 36 15 f9 bf f1 d3 ef bf
       -2.176869 1.8815551 -1.9459598 -1.8736554
000320 6e 0d 32 c0 c7 d7 7a c0 e0 d7 96 bf 62 31 0b 40
       -2.7820697 -3.91942 -1.178463 2.174889
000330 0c 97 52 40 4e 10 6b c0 eb be b6 3f ca 8e e9 bf
       3.2904692 -3.6728702 1.4277014 -1.8246701
000340 54 45 0c 40 43 fd 12 40 65 f4 6b 40 c1 46 d3 bf
       2.1917315 2.2967079 3.6867917 -1.6505967
000350 99 d3 d6 3f 94 f8 9e 40 f8 c8 ac c0 b8 d9 c2 c0
       1.6783324 4.967844 -5.3995323 -6.089077
000360 d4 77 ee bf f7 ad 35 40 66 b9 18 c0 06 7a 12 c0
       -1.8630319 2.838743 -2.3863158 -2.2886977
000370 bf a2 5d be a2 67 ae be 4a f9 81 bf 6e 23 b1 3d
       -0.21644114 -0.3406344 -1.0154202 0.08649336
000380 78 bd 98 3f 1c 5a 2a 40 6c 7b af bf 81 8b 07 c1
       1.1932821 2.6617498 -1.370954 -8.471559
000390 da 68 a1 bf 9b 3a f7 3f c2 76 44 c1 ad 00 50 c0
       -1.2610123 1.931476 -12.278994 -3.2500412
0003a0 f0 ea b3 bd 1e f2 4e 40 85 c4 4c 40 ce c0 78 be
       -0.08785045 3.2335277 3.1994946 -0.24292299
0003b0 9e 8c ff 3f 76 24 3a 40 cd db 8c bc 01 17 3e c0
       1.9964788 2.9084754 -0.017194653 -2.970154
0003c0 16 4b 99 c0 a6 94 21 c0 7f 88 0d 40 94 b5 ae bf
       -4.790416 -2.5246978 2.211456 -1.3649163
0003d0 f3 81 cb bf c6 1f 4a 40 60 29 ad 3f ad 7e 28 c0
       -1.5899032 3.1581893 1.3528252 -2.6327317
0003e0 01 cb 32 40 83 42 ad c0 2c ba c7 bf ba 46 9b 40
       2.7936404 -5.414369 -1.560369 4.8523836
0003f0 33 5d 6d 40 6a 4f b0 3f 9a d6 de 3d da 94 51 c0
       3.7088134 1.3774235 0.10880776 -3.2747102

bias f4 [196]
000000 00 00 00 00 00 00 00 00 00 00 00 00 00 00 00 00
       0.0 0.0 0.0 0.0
000010 00 00 00 00 00 00 00 00 00 00 00 00 00 00 00 00
       0.0 0.0 0.0 0.0
000020 00 00 00 00 00 00 00 00 00 00 00 00 00 00 00 00
       0.0 0.0 0.0 0.0
000030 00 00 00 00 00 00 00 00 00 00 00 00 00 00 00 00
       0.0 0.0 0.0 0.0
000040 00 00 00 00 00 00 00 00 00 00 00 00 00 00 00 00
       0.0 0.0 0.0 0.0
000050 00 00 00 00 00 00 00 00 00 00 00 00 00 00 00 00
       0.0 0.0 0.0 0.0
000060 00 00 00 00 00 00 00 00 00 00 00 00 00 00 00 00
       0.0 0.0 0.0 0.0
000070 00 00 00 00 00 00 00 00 00 00 00 00 00 00 00 00
       0.0 0.0 0.0 0.0
000080 00 00 00 00 00 00 00 00 00 00 00 00 00 00 00 00
       0.0 0.0 0.0 0.0
000090 00 00 00 00 00 00 00 00 00 00 00 00 00 00 00 00
       0.0 0.0 0.0 0.0
0000a0 00 00 00 00 00 00 00 00 00 00 00 00 00 00 00 00
       0.0 0.0 0.0 0.0
0000b0 00 00 00 00 00 00 00 00 00 00 00 00 00 00 00 00
       0.0 0.0 0.0 0.0
0000c0 00 00 00 00 00 00 00 00 00 00 00 00 00 00 00 00
       0.0 0.0 0.0 0.0
0000d0 00 00 00 00 00 00 00 00 00 00 00 00 00 00 00 00
       0.0 0.0 0.0 0.0
0000e0 00 00 00 00 00 00 00 00 00 00 00 00 00 00 00 00
       0.0 0.0 0.0 0.0
0000f0 00 00 00 00 00 00 00 00 00 00 00 00 00 00 00 00
       0.0 0.0 0.0 0.0
000100 00 00 00 00 00 00 00 00 00 00 00 00 00 00 00 00
       0.0 0.0 0.0 0.0
000110 00 00 00 00 00 00 00 00 00 00 00 00 00 00 00 00
       0.0 0.0 0.0 0.0
000120 00 00 00 00 00 00 00 00 00 00 00 00 00 00 00 00
       0.0 0.0 0.0 0.0
000130 00 00 00 00 00 00 00 00 00 00 00 00 00 00 00 00
       0.0 0.0 0.0 0.0
000140 00 00 00 00 00 00 00 00 00 00 00 00 00 00 00 00
       0.0 0.0 0.0 0.0
000150 00 00 00 00 00 00 00 00 00 00 00 00 00 00 00 00
       0.0 0.0 0.0 0.0
000160 00 00 00 00 00 00 00 00 00 00 00 00 00 00 00 00
       0.0 0.0 0.0 0.0
000170 00 00 00 00 00 00 00 00 00 00 00 00 00 00 00 00
       0.0 0.0 0.0 0.0
000180 00 00 00 00 00 00 00 00 00 00 00 00 00 00 00 00
       0.0 0.0 0.0 0.0
000190 00 00 00 00 00 00 00 00 00 00 00 00 00 00 00 00
       0.0 0.0 0.0 0.0
0001a0 00 00 00 00 00 00 00 00 00 00 00 00 00 00 00 00
       0.0 0.0 0.0 0.0
0001b0 00 00 00 00 00 00 00 00 00 00 00 00 00 00 00 00
       0.0 0.0 0.0 0.0
0001c0 00 00 00 00 00 00 00 00 00 00 00 00 00 00 00 00
       0.0 0.0 0.0 0.0
0001d0 00 00 00 00 00 00 00 00 00 00 00 00 00 00 00 00
       0.0 0.0 0.0 0.0
0001e0 00 00 00 00 00 00 00 00 00 00 00 00 00 00 00 00
       0.0 0.0 0.0 0.0
0001f0 00 00 00 00 00 00 00 00 00 00 00 00 00 00 00 00
       0.0 0.0 0.0 0.0
000200 00 00 00 00 00 00 00 00 00 00 00 00 00 00 00 00
       0.0 0.0 0.0 0.0
000210 00 00 00 00 00 00 00 00 00 00 00 00 00 00 00 00
       0.0 0.0 0.0 0.0
000220 00 00 00 00 00 00 00 00 00 00 00 00 00 00 00 00
       0.0 0.0 0.0 0.0
000230 00 00 00 00 00 00 00 00 00 00 00 00 00 00 00 00
       0.0 0.0 0.0 0.0
000240 00 00 00 00 00 00 00 00 00 00 00 00 00 00 00 00
       0.0 0.0 0.0 0.0
000250 00 00 00 00 00 00 00 00 00 00 00 00 00 00 00 00
       0.0 0.0 0.0 0.0
000260 00 00 00 00 00 00 00 00 00 00 00 00 00 00 00 00
       0.0 0.0 0.0 0.0
000270 00 00 00 00 00 00 00 00 00 00 00 00 00 00 00 00
       0.0 0.0 0.0 0.0
000280 00 00 00 00 00 00 00 00 00 00 00 00 00 00 00 00
       0.0 0.0 0.0 0.0
000290 00 00 00 00 00 00 00 00 00 00 00 00 00 00 00 00
       0.0 0.0 0.0 0.0
0002a0 00 00 00 00 00 00 00 00 00 00 00 00 00 00 00 00
       0.0 0.0 0.0 0.0
0002b0 00 00 00 00 00 00 00 00 00 00 00 00 00 00 00 00
       0.0 0.0 0.0 0.0
0002c0 00 00 00 00 00 00 00 00 00 00 00 00 00 00 00 00
       0.0 0.0 0.0 0.0
0002d0 00 00 00 00 00 00 00 00 00 00 00 00 00 00 00 00
       0.0 0.0 0.0 0.0
0002e0 00 00 00 00 00 00 00 00 00 00 00 00 00 00 00 00
       0.0 0.0 0.0 0.0
0002f0 00 00 00 00 00 00 00 00 00 00 00 00 00 00 00 00
       0.0 0.0 0.0 0.0
000300 00 00 00 00 00 00 00 00 00 00 00 00 00 00 00 00
       0.0 0.0 0.0 0.0
